weights/APNN_weights.pth (torch, 321863 bytes, 6 tensors)

conv1.weight f4 [48, 9, 9, 9]
0	0x3b4d8bc4	0.0031363824
1	0x3cdb79a4	0.026791401
2	0xbafaccd3	-0.0019134529
3	0x3d1c18ca	0.03810958
4	0xbc519646	-0.012792176
5	0x3c42ec40	0.011897147
6	0xbcb6f2f5	-0.022332648
7	0x3d09f85c	0.03368412
8	0xbcf97a5a	-0.03045385
9	0x3be65d77	0.007030185
10	0x3cd6f0a9	0.026237803
11	0x3cf969ef	0.03044602
12	0xbcac6177	-0.021042569
13	0x3c842401	0.01613045
14	0xbce8b7ce	-0.028407957
15	0x3cda8884	0.026676424
16	0x3c2bbef4	0.0104825385
17	0x3c02b91f	0.007978707
18	0x3b1e1fe2	0.002412789
19	0xbd1539e1	-0.03643215
20	0x3cd4e128	0.02598627
21	0xbbcef631	-0.0063159694
22	0xbcda0fbe	-0.026618835
23	0x3d018856	0.03162416
24	0xbcaf3eda	-0.021392275
25	0xba04ad8d	-0.00050612615
26	0x3cedc222	0.029023234
27	0xbbc758a0	-0.006083563
28	0x3c4a179e	0.012334732
29	0xbc16b424	-0.009198222
30	0xbd10b69a	-0.035330392
31	0xbcf8c128	-0.030365542
32	0xb9d11f06	-0.000398867
33	0x3ca5a370	0.020219535
34	0x3ce0f08d	0.027458454
35	0x3a8ea562	0.0010883028
36	0x3c9178ee	0.01775786
37	0x3c627be5	0.013823484
38	0xbcc5fc77	-0.024168236
39	0xbcc7bbc0	-0.024381518
40	0x3cac5fb6	0.021041732
41	0x3c860dbd	0.016363973
42	0xbb836ea4	-0.004010992
43	0xbd065d11	-0.0328036
44	0x3cd38c1b	0.025823643
45	0xbbae905b	-0.005327267
46	0xbccb94f2	-0.024851296
47	0x3bb64113	0.0055619567
48	0x3ce251c7	0.027626885
49	0x3c6a2d9c	0.014293101
50	0xba1220d5	-0.00055743504
51	0x3b106d68	0.0022037867
52	0xbcd59a06	-0.02607442
53	0xbcf9c96a	-0.03049155
54	0x3d2e0fbd	0.042495478
55	0x3ae6cde8	0.0017608972
56	0xbc1af17f	-0.009456991
57	0x3c93d7b2	0.018047187
58	0xbcd1aaef	-0.025594203
59	0x3ac9543d	0.0015360188
60	0xbccfc3ef	-0.025361983
61	0xbc897545	-0.016779551
62	0x3c8c6294	0.01713685
63	0xbc711dba	-0.01471656
64	0x3cbf471a	0.023349334
65	0x3ad1e0c1	0.0016012416
66	0xbcbb5666	-0.022868346
67	0x3c211b66	0.009833192
68	0x3c3ed0a9	0.011646428
69	0x3caaaf3f	0.020835517
70	0xbcb912a5	-0.022591898
71	0x3c9b9424	0.018991537
72	0xbc6d133b	-0.014469917
73	0x3cdc885b	0.026920488
74	0x3d22df60	0.03976381
75	0x3d045d0e	0.032315306
76	0xbcda26ea	-0.026629884
77	0xbbe4c02e	-0.0069809174
78	0x3cd14a03	0.025547987
79	0x3d0089fc	0.031381592
80	0xbccac817	-0.024753613
81	0x3bdf429a	0.0068133594
82	0x3c983418	0.018579528
83	0x3bd31fd6	0.006443004
84	0xba15ab52	-0.00057094276
85	0x3b295f6a	0.0025844225
86	0xbcf8f105	-0.030388365
87	0x3cdd3e3d	0.027007217
88	0x3d1a7b1e	0.03771507
89	0xbc337298	-0.010952614
90	0xbb8b419b	-0.004249764
91	0xbd14eda3	-0.03635944
92	0x3c6cb53e	0.014447508
93	0x3cdd894c	0.027043007
94	0x3d2150e4	0.039383784
95	0xbcdf9669	-0.0272934
96	0xbc7b625e	-0.015343277
97	0xbce39cef	-0.027784793
98	0x3d13f068	0.03611794
99	0xbb925559	-0.0044657406
100	0x3c9310f6	0.017952424
101	0xbd021d18	-0.031766027
102	0xbd100ff8	-0.03517148
103	0xbafc3f31	-0.0019244907
104	0x3cea8854	0.02862946
105	0x3b25bf1a	0.0025290907
106	0x3c13155a	0.008977259
107	0x3d0d41da	0.03448663
108	0xbc000a1b	-0.007814909
109	0xbbf9faca	-0.0076287733
110	0xbc987cd9	-0.01861422
111	0xbc8337ee	-0.01601788
112	0xbcec0c7d	-0.028814549
113	0x3c84ab33	0.016194915
114	0xbbd5680a	-0.0065126466
115	0x3ce2c9ff	0.02768421
116	0x3d043e2e	0.03228586
117	0x3ceab872	0.028652404
118	0x3cbef452	0.02330986
119	0x3c281051	0.010257796
120	0xbcdb42ae	-0.026765194
121	0xbc58096e	-0.013185842
122	0x3c5581ae	0.013031406
123	0x3cc1d1ae	0.023659553
124	0x3c6f9b7f	0.0146244755
125	0xbc96e48f	-0.018419532
126	0xbbde1340	-0.006777197
127	0x3c07847b	0.008271332
128	0x3a6da001	0.0009064675
129	0x3d1fc19c	0.039003
130	0xbcd1cc10	-0.02561
131	0x3d1f22b7	0.038851466
132	0xbd0a1a64	-0.033716574
133	0x3cc1ec17	0.023672147
134	0x3d0c6bc5	0.034282465
135	0xbd1563c7	-0.03647211
136	0xbcd71de4	-0.02625937
137	0xba2aaf40	-0.00065110996
138	0x3ce4e9cb	0.027943512
139	0xba5374eb	-0.00080664334
140	0xbc677980	-0.014128089
141	0x3d10974c	0.035300538
142	0xbcaf26bc	-0.021380775
143	0x3ca279eb	0.019833526
144	0xbcddf13d	-0.02709257
145	0x3cd72c47	0.02626623
146	0x3d423356	0.04741224
147	0x3d034645	0.032049436
148	0x3d3b5f96	0.045745455
149	0x3d222209	0.03958324
150	0x3c399f2f	0.011329456
151	0xbc42f6db	-0.011899675
152	0xbca50d9b	-0.02014809
153	0x3d0e806f	0.034790453
154	0x3c06a982	0.008219125
155	0xbc7849d5	-0.015154322
156	0x3b86820d	0.0041048587
157	0x35c8e48b	1.4967676e-06
158	0x3d114561	0.035466556
159	0xbccb4998	-0.024815366
160	0xbd145133	-0.03621025
161	0x3d0ebd67	0.034848597
162	0xbce897a2	-0.028392617
163	0xbc831f1d	-0.016006047
164	0xbce62b39	-0.028096782
165	0x3c904759	0.017612146
166	0xbc913ca7	-0.017729117
167	0xbb5b7bcb	-0.0033490534
168	0xb968965a	-0.00022181254
169	0xbc541c19	-0.012946152
170	0xbbfd6cca	-0.007733916
171	0x3c63e759	0.013910138
172	0x3969befc	0.00022291759
173	0xbbc78e2b	-0.006089946
174	0xbd047289	-0.03233579
175	0x3d2d6f96	0.042342745
176	0xbc5e5124	-0.01356915
177	0x3cfd4583	0.030916935
178	0x3c00d035	0.00786214
179	0x3d0bfb36	0.03417512
180	0xbc6dfaa6	-0.014525091
181	0xbca07fa7	-0.01959212
182	0x3ced0273	0.028931832
183	0x3b731a84	0.0037094662
184	0x3cb75d1b	0.022383263
185	0xbc26bcc7	-0.010176844
186	0xbcfaaddc	-0.03060048
187	0x3c18b9f8	0.009321682
188	0xbcc34224	-0.02383525
189	0x3cb2854f	0.021792082
190	0xb9656a25	-0.00021878684
191	0x3d009f9b	0.03140221
192	0x3b88b72e	0.0041722273
193	0xbc1039cb	-0.008802841
194	0x3ce2ac6f	0.027670113
195	0xbc662083	-0.014045837
196	0x3ba3e9da	0.0050022425
197	0xbc870c0e	-0.01648524
198	0x3c1d4660	0.009599298
199	0xbccd7db5	-0.025084356
200	0x3b53d2fb	0.00323218
201	0xbcb74974	-0.022373892
202	0xbc0441c6	-0.008072322
203	0x3c03a425	0.008034741
204	0xbd0df1df	-0.034654494
205	0x3ca1f48b	0.019769927
206	0x3cbed37c	0.023294203
207	0x3cd51f0e	0.026015785
208	0x3cc1ec94	0.02367238
209	0x3c4482e1	0.011994095
210	0x3d1c96be	0.038229696
211	0xbc26a6ff	-0.010171651
212	0x3ca19faa	0.019729454
213	0xbc47f1c3	-0.012203637
214	0x3ca00d82	0.019537691
215	0x3d1cf09d	0.038315404
216	0x3d104abe	0.03522753
217	0xbcc7b818	-0.024379775
218	0x3c5082d2	0.0127265025
219	0xbca9f615	-0.020747224
220	0xbccfa31f	-0.025346337
221	0x3d0c450b	0.034245532
222	0xbd19f5f9	-0.037588093
223	0x3c176a03	0.009241584
224	0x3c3336b3	0.010938334
225	0x3c610335	0.013733675
226	0xbce006c4	-0.027346976
227	0x3c9c2070	0.019058436
228	0x3cf37763	0.029720014
229	0x3c1071c4	0.008816186
230	0xbc646030	-0.0139389485
231	0xbcbc846f	-0.023012368
232	0x3d13020a	0.035890616
233	0xbd0b8eca	-0.03407172
234	0x3cfb9657	0.030711336
235	0x3c2a74fc	0.010403868
236	0xbbba7ee3	-0.0056913956
237	0xbca29eca	-0.019851107
238	0xbc24ef51	-0.010066823
239	0xbcd21a84	-0.02564741
240	0xbcb031ad	-0.021508062
241	0xbc0e7300	-0.00869441
242	0xbbbb31c4	-0.0057127196
243	0x3c392e19	0.011302494
244	0x3b1110a6	0.0022135167
245	0x3d13090e	0.035897307
246	0xbc4ec423	-0.012620005
247	0x3a0b2a29	0.00053087116
248	0x3c16d7d7	0.009206734
249	0x3a806815	0.0009796644
250	0x3ce92f61	0.028464975
251	0xbb9f7f6c	-0.004867485
252	0x3ce912a7	0.028451277
253	0x3cb44eab	0.022010168
254	0xbc6e4ce2	-0.0145446975
255	0x3cb47998	0.022030637

conv1.bias f4 [48]
0	0xbccef842	-0.025264863
1	0xbd17a466	-0.037022017
2	0x3c865385	0.016397247
3	0xbc6b34b3	-0.014355826
4	0x3b9ae07d	0.004726468
5	0x3c801a53	0.015637552
6	0xbcaac54a	-0.020846028
7	0xbbe5ba84	-0.00701076
8	0xbd058118	-0.032593817
9	0x3d14077a	0.036139943
10	0x3cca2c12	0.024679217
11	0x3c16699c	0.009180453
12	0x3c62f08b	0.013851295
13	0xb97c94bc	-0.00024088
14	0x3c95e59b	0.018297961
15	0x3d09b428	0.033619076
16	0x3a3e21a6	0.0007252939
17	0x3c9419cd	0.018078709
18	0xbc832a54	-0.016011395
19	0xb9571f8c	-0.0002051575
20	0x3c9b9197	0.018990321
21	0x3cb5fbb5	0.02221475
22	0x3c98093e	0.018559095
23	0x3ccaaff5	0.024742106
24	0xbcb092c5	-0.02155436
25	0x3a914e3e	0.001108594
26	0xbc046717	-0.008081219
27	0x3c979d81	0.01850772
28	0x3cd5cddf	0.026099144
29	0x3c098741	0.008394063
30	0x3ce1d6f3	0.027568316
31	0x3cf9013d	0.030396098
32	0xbb562467	-0.0032675506
33	0x3b9f036f	0.0048527042
34	0xbc20a758	-0.009805523
35	0x3c26ced3	0.010181147
36	0x3d0294ea	0.031880297
37	0x3d0ca827	0.03434005
38	0xbcb9ccd0	-0.02268067
39	0x3cb7ad42	0.022421483
40	0xbc25575f	-0.010091632
41	0xbcc32afe	-0.023824211
42	0x3cc24013	0.023712194
43	0x3b335880	0.0027365983
44	0x3b2b3d6b	0.0026129137
45	0x3c827d46	0.015928876
46	0x3c99c30a	0.01876976
47	0xba9f2ed7	-0.0012144697

conv2.weight f4 [32, 48, 5, 5]
0	0xbc5fc7f9	-0.013658517
1	0xbc8d04bd	-0.017214173
2	0x3d4c2571	0.049840394
3	0xbb230445	-0.002487437
4	0x394889ef	0.0001912487
5	0x3d0e5606	0.034750007
6	0xbc23dd0b	-0.010001431
7	0x3d2b5fb0	0.0418393
8	0x3c8c0ba2	0.01709539
9	0x3a024bc5	0.0004970397
10	0xbc00a671	-0.007852183
11	0x3c512c83	0.01276696
12	0x39deee8e	0.00042520877
13	0xbb72e96c	-0.00370654
14	0xbbd7aac4	-0.006581636
15	0xbc99e7a9	-0.018787222
16	0x3ca9cb4c	0.020726822
17	0xbb94332f	-0.004522703
18	0x3b9aa690	0.004719563
19	0xbcecc983	-0.028904682
20	0x3be8f719	0.0071095345
21	0xbc90bd89	-0.017668502
22	0x3d5b4be8	0.053539187
23	0x3b61c060	0.003444694
24	0xbd380c7f	-0.044933792
25	0x3c858641	0.016299369
26	0xbcbb2653	-0.022845423
27	0x3c279a36	0.010229638
28	0xbcab3c1c	-0.020902686
29	0x3c6a6215	0.014305611
30	0x3bfc5f6a	0.007701804
31	0xbc5d0fbe	-0.013492523
32	0x3c9c399a	0.019070435
33	0x3c8ecea5	0.01743252
34	0xbc714046	-0.014724797
35	0xbcd21cc6	-0.025648486
36	0xbc9df3d3	-0.019281304
37	0x3c9bf682	0.019038443
38	0x3b897964	0.004195379
39	0xbcc7acf7	-0.024374468
40	0xbcaa6dda	-0.020804334
41	0x3c72b771	0.014814244
42	0x3ca277a9	0.019832449
43	0xbae719b2	-0.0017631559
44	0x3c166a75	0.009180655
45	0xbc461d88	-0.012092002
46	0x3beb9dfa	0.007190463
47	0x3c6e8221	0.014557392
48	0x3bcedf9b	0.006313277
49	0x397da028	0.00024187623
50	0xbcfe5036	-0.031044107
51	0x3c3fcfa8	0.011707224
52	0xbcf9597d	-0.03043818
53	0xbbe56d59	-0.0070015606
54	0x3c2eda69	0.01067219
55	0xbb31b540	-0.002711609
56	0xbd2bb4a6	-0.041920327
57	0xbb8eed84	-0.00436181
58	0xbc84f651	-0.016230734
59	0xbc135f60	-0.008994907
60	0x3d3ba6ac	0.045813248
61	0x3c14793f	0.00906211
62	0x3d330a01	0.043710712
63	0xbc9676fd	-0.018367285
64	0xbb8ac619	-0.004235041
65	0x3c8de390	0.017320424
66	0xbbe5db0b	-0.0070146373
67	0xbc8d2f51	-0.017234476
68	0x3c973e22	0.018462244
69	0x3cea39db	0.02859204
70	0xbd21710d	-0.039414454
71	0xbd28b7e2	-0.04119099
72	0x3c0d026f	0.008606537
73	0xbac1cec7	-0.0014786356
74	0x3d2c920d	0.042131472
75	0x3c5769c8	0.013147779
76	0xbd234e7e	-0.039869778
77	0xbac94de6	-0.0015358299
78	0x3c940927	0.01807077
79	0x3ca5a1d7	0.020218773
80	0xbce88c6b	-0.028387269
81	0xbc0137ee	-0.00788687
82	0x3c9b7a46	0.018979203
83	0x3b9017ee	0.004397384
84	0xbca8c0ce	-0.020599749
85	0xbce512fa	-0.02796315
86	0xbce30fd4	-0.027717508
87	0x3c1e3980	0.009657264
88	0xbc5743ef	-0.013138755
89	0x3b0be621	0.0021346884
90	0xbb27e51d	-0.002561874
91	0xbce8a4da	-0.02839892
92	0xbbae8d08	-0.005326871
93	0x3d465f86	0.048430942
94	0x3ceb8291	0.028748782
95	0xbc0c14de	-0.008549897
96	0xbd30115b	-0.0429853
97	0xbcd2e959	-0.025746034
98	0x3d2a1de5	0.041532416
99	0xbb8fe5fa	-0.004391429
100	0x3bc6b16f	0.006063632
101	0xbbf129bf	-0.007359713
102	0x3bfe489e	0.0077601215
103	0xbcbd9d40	-0.023146272
104	0x3b8480a1	0.004043654
105	0x3ada6d02	0.0016664567
106	0x3cc0010f	0.023438005
107	0x3c8b9393	0.017038142
108	0xbcbf773d	-0.023372287
109	0x3c2e681e	0.010644941
110	0xbc38b366	-0.011273241
111	0xbd084f12	-0.033278532
112	0x3c1d4221	0.009598286
113	0x3c5573b6	0.013028076
114	0xbd2a6ac8	-0.04160574
115	0x3ccba86e	0.024860587
116	0x3c3fc9ec	0.011705857
117	0x3c496cc4	0.012293998
118	0x3d03cd1d	0.032178033
119	0xbc7686b8	-0.015046768
120	0x3c31ebe6	0.010859465
121	0x3c70ee25	0.014705216
122	0x3a71e924	0.0009228161
123	0xbc96fe16	-0.018431704
124	0xbb936cef	-0.00449907
125	0x3cb6a486	0.022295248
126	0xbcbc526a	-0.022988517
127	0x3d76aadb	0.060221534
128	0xbd34ea1e	-0.044168584
129	0x3cc953ae	0.024576034
130	0xbc812d11	-0.01576856
131	0xbbdb6e3b	-0.00669649
132	0x3bbd225e	0.005771919
133	0xbc8f209d	-0.017471606
134	0x3d0f1d4c	0.03494005
135	0x3cd9babe	0.026578303
136	0x3d0687d6	0.032844387
137	0x3bc87728	0.00611772
138	0xbceaaa5b	-0.028645685
139	0x3c2c18ea	0.010503987
140	0xbcb39447	-0.02192129
141	0xbd393ce7	-0.045224097
142	0xbbf22b4f	-0.0073904167
143	0xbd6e3ea9	-0.058165226
144	0x3bdd208e	0.0067482656
145	0x3bd5e125	0.0065270835
146	0xbd3577f5	-0.044303853
147	0x3cb3b68d	0.021937633
148	0x3bbaf453	0.0057053952
149	0x3cf51572	0.029917452
150	0xbc86f542	-0.01647437
151	0xbc8f44b0	-0.017488807
152	0x3d25e2a8	0.04049936
153	0xbd527046	-0.051376604
154	0x3d412f3a	0.04716418
155	0x3d3e07ed	0.046394277
156	0x3cef4bef	0.029211013
157	0x3d1e979b	0.0387188
158	0xbc22de08	-0.009940632
159	0xbcc76244	-0.024338849
160	0x3bf8b309	0.007589702
161	0xbd07bc39	-0.033138487
162	0xbcac071c	-0.020999484
163	0x3cec4caa	0.02884515
164	0x3cba2042	0.02272046
165	0xbd51a967	-0.051186945
166	0xbb5ade62	-0.003339671
167	0xbcdc1d2c	-0.026869379
168	0x3cb755c2	0.02237976
169	0xbcb5fdfa	-0.022215832
170	0x3d194516	0.0374194
171	0x3d1d5dc7	0.03841951
172	0xbbab7bc5	-0.0052332603
173	0x3d0139be	0.031549208
174	0xbd41350f	-0.04716974
175	0xbc56edd0	-0.013118222
176	0x3d031c5f	0.03200948
177	0x3ceb2a75	0.028706769
178	0xbcce7bf1	-0.025205584
179	0xbc8903b7	-0.016725404
180	0xbc61a3af	-0.013771935
181	0xbcfdb1de	-0.030968603
182	0x3b429b27	0.0029694529
183	0x3d11d5e0	0.035604358
184	0x3b6fa51a	0.0036566914
185	0x3d794b9a	0.060863115
186	0xbb9ddbf3	-0.0048174798
187	0x3d258911	0.04041392
188	0x3c2af1b6	0.010433605
189	0xbcc70302	-0.024293426
190	0x3bb68a9e	0.0055707237
191	0xbcc39af7	-0.023877604
192	0x3c3b8d4f	0.011447265
193	0x3cba50c3	0.022743588
194	0xbcfe2781	-0.031024696
195	0xbcdfb931	-0.027309986
196	0xbc98ac6e	-0.018636908
197	0x3d3e751f	0.046498414
198	0x3d22b418	0.039722532
199	0xbc8a6f69	-0.016898828
200	0xbc19873b	-0.00937062
201	0xbc682941	-0.014169992
202	0xbc71e261	-0.014763446
203	0x3c8d7113	0.017265832
204	0x3c02c8c5	0.0079824375
205	0xbc521044	-0.012821261
206	0xbca51be0	-0.020154893
207	0xbc82be41	-0.01595986
208	0x3c8ea259	0.017411398
209	0xbcd604a3	-0.026125258
210	0xbb6a5090	-0.0035753585
211	0x3b3b96ce	0.0028623822
212	0xbb7ac1d9	-0.0038262515
213	0xbb670e29	-0.0035256243
214	0xbc8ba6c7	-0.0170473
215	0xbc9a60e5	-0.018845031
216	0xbd5d4718	-0.05402288
217	0xbc8a9a41	-0.016919257
218	0x3c5f45ed	0.013627511
219	0xbb9010cc	-0.0043965336
220	0x3cdf98a6	0.027294468
221	0xbd43255a	-0.047643043
222	0xbc52675e	-0.0128420275
223	0xbc8ea479	-0.017412411
224	0xbd4818b7	-0.048851695
225	0x3d1162e9	0.03549472
226	0xbc45fdec	-0.0120844655
227	0x3ce6beaf	0.028167097
228	0xbbc1bf19	-0.005912673
229	0x3cb02c4a	0.021505494
230	0xbb0d1b1d	-0.0021531053
231	0x3d1c39ef	0.038141187
232	0x3d185146	0.037186883
233	0x3bc4efd8	0.006010037
234	0xbc7897d8	-0.015172921
235	0x3d3df7d9	0.046378944
236	0xbcc7253c	-0.024309747
237	0x3c02821d	0.007965592
238	0x3c039c97	0.008032939
239	0xbd06ad11	-0.032879893
240	0x3c234cb4	0.009967018
241	0xbbab33ce	-0.0052246815
242	0xbca24f60	-0.01981324
243	0x3c632b33	0.01386528
244	0xbd3789a0	-0.044808984
245	0xbc942210	-0.018082649
246	0xbb80214a	-0.0039102184
247	0xbc3f7694	-0.011685986
248	0xbd00163d	-0.031271208
249	0xbc14d724	-0.009084497
250	0x3d048621	0.032354478
251	0xbc54442a	-0.012955705
252	0x3bc503c0	0.00601241
253	0x3cce3068	0.025169566
254	0x3cf105b7	0.02942167
255	0x3cd385cf	0.02582064

conv2.bias f4 [32]
0	0x3c3e9a82	0.011633517
1	0x3b87b65e	0.004141613
2	0xbc12584e	-0.008932186
3	0x3ae1f667	0.0017239571
4	0xbb9da54d	-0.004810965
5	0x3ca9f598	0.020746991
6	0x3b05721a	0.00203622
7	0xbcf02373	-0.029313779
8	0x3b8288c8	0.0039835908
9	0xbc45f122	-0.012081416
10	0x3c90bddd	0.017668659
11	0xbbeaa18e	-0.007160372
12	0x3c7e8191	0.015533821
13	0xba640b9b	-0.0008699239
14	0x3b82a2c8	0.00398669
15	0x3c9b9ad8	0.018994734
16	0x3c2ed788	0.010671504
17	0xbc872f56	-0.016502064
18	0xbc53b564	-0.012921665
19	0x3c59be27	0.013289965
20	0x3c0d41d8	0.008621655
21	0x3cd5d3f9	0.026102053
22	0xbc4ab1c4	-0.012371484
23	0xbc490b9f	-0.012270837
24	0x3ca92575	0.020647744
25	0xbb17d31e	-0.0023166607
26	0xbc75f94a	-0.015013048
27	0xbbb1ad83	-0.0054222955
28	0x3c22f1a0	0.009945303
29	0x3cc14d5f	0.023596464
30	0x3bde6de2	0.0067880014
31	0x3c5f0796	0.0136126485

conv3.weight f4 [8, 32, 5, 5]
0	0x3c740482	0.014893653
1	0xbcc2e535	-0.023790935
2	0x3c3e6ef8	0.011623137
3	0xbc8c4c8c	-0.017126344
4	0xbd13b926	-0.036065243
5	0x3c0d69ea	0.008631209
6	0xbc13600d	-0.008995068
7	0xbcf349ca	-0.029698271
8	0x3cea05c6	0.028567206
9	0xbcdad263	-0.026711648
10	0xbcd77590	-0.026301175
11	0xbc247987	-0.01003874
12	0xbcaee42f	-0.02134904
13	0x3caefeb2	0.021361683
14	0x3d0ada53	0.033899616
15	0xbce3076f	-0.027713506
16	0x3d1a53e3	0.037677657
17	0xbc90a9aa	-0.017659027
18	0xbc7c8d9c	-0.015414622
19	0xbad302a5	-0.0016098811
20	0x3c910fff	0.017707823
21	0xbc2abb60	-0.01042065
22	0xbbd6ba30	-0.006552957
23	0x3c224991	0.009905235
24	0x3ce1e64b	0.027575633
25	0xbd019f6a	-0.03164617
26	0xbc83b9ba	-0.016079772
27	0x3cce823f	0.02520859
28	0x39aa6a61	0.00032504185
29	0x3c5f6e37	0.013637117
30	0x3b33a6f9	0.0027412756
31	0x3cc01670	0.023448199
32	0xbd377789	-0.044791732
33	0x3cd2b22d	0.025719726
34	0xbc97a14e	-0.018509533
35	0x3c9d11aa	0.019173462
36	0x3bf1302b	0.0073604784
37	0xbd072b41	-0.033000235
38	0x3cc73b8c	0.024320386
39	0xbc303b9d	-0.0107564
40	0x3bdaf9a8	0.0066825934
41	0xbc9387fd	-0.01800918
42	0x3c25d674	0.01012193
43	0x3bc10eff	0.0058916803
44	0xbc724cfa	-0.01478886
45	0x3cf288e6	0.029606294
46	0xbd05e771	-0.032691423
47	0xbc920de4	-0.01782889
48	0x3c32fc2b	0.010924379
49	0xbd3a00d1	-0.045410935
50	0x3ab91146	0.0014119528
51	0xbb135c2c	-0.0022485359
52	0xbc1f7786	-0.009733086
53	0xbd177645	-0.036978025
54	0x3c72f9be	0.014830051
55	0xba64ce5a	-0.00087282585
56	0xbb5a7bad	-0.0033337877
57	0x3babda2f	0.0052445154
58	0x3ce778b4	0.028255798
59	0xbd3086d5	-0.043097336
60	0x3c73621a	0.014854932
61	0x3cd90012	0.026489291
62	0x3d38d09f	0.04512083
63	0xbb3dc34e	-0.0028955522
64	0x3b2e8051	0.0026626776
65	0x3cbc2e24	0.02297122
66	0xbcc9b3b7	-0.024621828
67	0x3ce675b4	0.028132297
68	0x3cc236e0	0.023707807
69	0x3a8d62a9	0.0010786849
70	0xbc26925f	-0.0101667335
71	0xbcbd0ae0	-0.023076475
72	0xbcd0fc61	-0.025510969
73	0x3c8acbab	0.01694282
74	0x3ca70daa	0.020392258
75	0x3d0b4a08	0.03400615
76	0xbc9e8c92	-0.019354139
77	0xba169759	-0.00057445985
78	0xbd094999	-0.033517454
79	0x3cc27a59	0.02373998
80	0x3cfe907a	0.031074751
81	0x3c73d3f5	0.014882077
82	0xbb3ceb2c	-0.0028826697
83	0x3d0ccbbd	0.034373987
84	0x3d003a9d	0.031305898
85	0x3cae08e2	0.02124447
86	0x3b9eadb0	0.0048424825
87	0x3cf7dbe6	0.030256223
88	0xbcab8c30	-0.02094087
89	0xbcc971ce	-0.0245904
90	0xbce16df8	-0.027518257
91	0x3ceed166	0.029152583
92	0xbaaee803	-0.0013344291
93	0xbc8d665e	-0.017260727
94	0x3d101fe1	0.035186652
95	0xbbf073e6	-0.007338035
96	0x3c7251f9	0.014790052
97	0x3cbb29cd	0.02284708
98	0x3c877418	0.01653485
99	0xbbdc45bf	-0.0067221816
100	0xb6c26b90	-5.7941725e-06
101	0x3d4130f8	0.04716584
102	0xbcabdae4	-0.020978399
103	0x3bb0c618	0.0053947084
104	0x3c486cd8	0.012232982
105	0xbc9323e3	-0.017961448
106	0x3cc6d0b6	0.024269443
107	0x3c9f3d29	0.019438343
108	0x3b6ad2be	0.0035831179
109	0xbc1a7cf8	-0.009429209
110	0x3cf360ec	0.029709302
111	0xba6f70ac	-0.0009133916
112	0xbd1c3bf1	-0.038143102
113	0xbc423dbf	-0.011855542
114	0x3b6a12e2	0.0035716821
115	0xbb1ab21d	-0.00236047
116	0xbd1fc7e9	-0.03900901
117	0x3be53d55	0.0069958367
118	0xbcb6ab74	-0.022298552
119	0x3cb3103a	0.021858323
120	0xbb1f019e	-0.0024262439
121	0xbc3c7fb5	-0.011505057
122	0xbd34d14d	-0.044144917
123	0xbc86b04d	-0.016441489
124	0x3bea7d7f	0.0071560736
125	0xbc315450	-0.010823324
126	0x3c1b7722	0.009488853
127	0xbc5e773a	-0.0135782305
128	0x3c38c6e4	0.011277888
129	0xbca9383b	-0.020656696
130	0xbd0f6600	-0.035009384
131	0x3c674dfa	0.014117712
132	0xbcd15b98	-0.02555637
133	0xbd38dd7a	-0.04513309
134	0xbc58384b	-0.013197015
135	0x3d4d5021	0.050125245
136	0x3d0fbfa2	0.035094865
137	0xbd0abb1a	-0.03386984
138	0xbce6b9b1	-0.028164716
139	0x3c82ef42	0.015983228
140	0xbbfee3c5	-0.007778617
141	0x3c7cfb5f	0.015440791
142	0x3b501975	0.0031753455
143	0x3bbbb9c6	0.005728933
144	0x3bd36f9c	0.006452514
145	0x3d2295eb	0.039693754
146	0x3ca0f6db	0.01964896
147	0x3cd1ebd4	0.025625147
148	0x3cd188e5	0.025577972
149	0xbc6f1a52	-0.014593678
150	0x3b31e410	0.0027143992
151	0xbbaedc89	-0.0053363484
152	0x3c2c0b19	0.010500693
153	0x3c0a3612	0.008435743
154	0x3cb82544	0.022478707
155	0x3bb6def7	0.0055807787
156	0xbc4457f8	-0.011983864
157	0x3c3c6b50	0.011500195
158	0x3c8bd435	0.017068962
159	0x3ccaf23a	0.024773706
160	0x3c2a1e70	0.010383233
161	0xbcfd4952	-0.03091875
162	0x39ab158d	0.00032631718
163	0xbd0c9749	-0.034323964
164	0x3d1d4f43	0.038405668
165	0x3ccd6218	0.025071189
166	0xbca13a01	-0.019680979
167	0xbbb60e23	-0.0055558844
168	0x3afabdc9	0.0019130047
169	0x3c8ffda0	0.017576993
170	0x3c563bf3	0.013075816
171	0xbc820f09	-0.01587631
172	0x3bc803c3	0.006103964
173	0xbc090dc4	-0.008365098
174	0xbd0d73ba	-0.034534194
175	0x3cfdedf6	0.030997258
176	0xbc6fcf03	-0.014636758
177	0xbc28b6bf	-0.010297476
178	0x3bbbcaab	0.005730947
179	0x3bd84a42	0.006600649
180	0x3bf62190	0.007511325
181	0xbcc8eece	-0.024527933
182	0xbc961455	-0.018320242
183	0x3cb92de4	0.02260489
184	0xbbb34a63	-0.005471514
185	0x3ae8a598	0.0017749546
186	0xbd09a70a	-0.033606566
187	0xbcb8888d	-0.02252605
188	0x3b5ec7f8	0.0033993702
189	0x3cb8e389	0.022569435
190	0xbd0df75f	-0.03465974
191	0x3ca8c92e	0.020603742
192	0x3c4d4008	0.012527473
193	0x3ce80d35	0.02832661
194	0xbd09124c	-0.033464715
195	0xbc962c1a	-0.018331576
196	0x3c815f2f	0.015792457
197	0xbc4c0649	-0.01245267
198	0xbc2cf8b0	-0.010557339
199	0x3c1dda61	0.009634585
200	0x3c023e74	0.00794946
201	0x3c48f25f	0.012264817
202	0x3cd0633c	0.025437944
203	0xbcf0dfa5	-0.029403517
204	0xbb8e2ce9	-0.00433885
205	0x3cfba319	0.03071742
206	0x3c970a47	0.018437518
207	0x3993e8f7	0.00028211597
208	0xbc9ba323	-0.018998688
209	0xbc892ccc	-0.016744994
210	0x3d09bf6d	0.033629823
211	0xbc4b21c3	-0.012398186
212	0x3c7a92c6	0.015293783
213	0xbd08c747	-0.03339317
214	0xbc97ca57	-0.0185291
215	0x3cb34b56	0.021886509
216	0xbbb38ae6	-0.0054792045
217	0xbcc266f6	-0.023730736
218	0xbcf20841	-0.029544951
219	0xbd2b95c3	-0.04189087
220	0x3bf3c30a	0.007439022
221	0xbcfc331c	-0.03078609
222	0xbd2c31bc	-0.042039618
223	0x3c3f38f2	0.011671292
224	0xbce1f4c3	-0.027582532
225	0xbcb49158	-0.022041962
226	0x3c6f6f06	0.014613872
227	0x3b7ef4e0	0.003890328
228	0xbd06cf13	-0.032912325
229	0x3cdf4f61	0.02725953
230	0x3cd36e66	0.025809478
231	0x3c772ace	0.015085889
232	0xbcc4a20c	-0.024003051
233	0x3d1687ef	0.03675073
234	0x3d08c2b2	0.0333888
235	0xbcc63a92	-0.02419785
236	0xbc86d4e5	-0.016458938
237	0x3d049496	0.032368265
238	0x3d465832	0.048423953
239	0x3b24be8c	0.002513799
240	0xbc3569eb	-0.011072616
241	0xbc8e51ac	-0.017372929
242	0x3b56c2fa	0.0032770024
243	0x3cff8bc8	0.031194583
244	0x3bd3d899	0.0064650294
245	0x3c633bcb	0.013869236
246	0xbc5b2ab3	-0.0133768795
247	0xbcc61c68	-0.024183467
248	0x3c5ade8e	0.013358725
249	0xbca892da	-0.020577837
250	0x3cba8315	0.022767583
251	0x3ca83f62	0.020538036
252	0x3c21c58d	0.00987376
253	0x3cddd0b0	0.027077049
254	0x3c94962d	0.018138016
255	0x3c2814ba	0.010258848

conv3.bias f4 [8]
0	0x3c137820	0.009000808
1	0xbc446080	-0.011985898
2	0xbba9ba78	-0.0051796995
3	0xbcf4b55f	-0.02987164
4	0xbc830c56	-0.015997093
5	0xbcb31d01	-0.021864416
6	0xbc37b828	-0.01121334
7	0x3af2d040	0.0018525198
